…
ts":[]},{"cell_type":"code","metadata":{"id":"1Qaoqp6VNb7z","colab_type":"code","colab":{"base_uri":"https://localhost:8080/","height":1000},"outputId":"af7de235-e4d7-4feb-c8f9-8a0f9cea1991","executionInfo":{"status":"ok","timestamp":1588789923871,"user_tz":-120,"elapsed":17776,"user":{"displayName":"Mr MJ","photoUrl":"https://lh3.googleusercontent.com/a-/AOh14Gjm_7nX1TLP7qLx5M-citQinV4Ch_mnMlsYQwlH=s64","userId":"07278017693302824280"}}},"source":["model"],"execution_count":15,"outputs":[{"output_type":"execute_result","data":{"text/plain":["SinkhornTransformerLMGenerator(\n","  (to_token_emb): Embedding(5835, 128)\n","  (pos_emb): Embedding(100, 128)\n","  (axial_pos_emb): AxialPositionalEncoding()\n","  (sinkhorn_transformer): ProjectInOut(\n","    (fn): SinkhornTransformer(\n","      (layers): ReversibleSequence(\n","        (blocks): ModuleList(\n","          (0): ReversibleBlock(\n","            (f): Deterministic(\n","              (net): PreNorm(\n","                (norm): LayerNorm((1024,), eps=1e-05, elementwise_affine=True)\n","                (fn): SinkhornSelfAttention(\n","                  (to_q): Linear(in_features=1024, out_features=1024, bias=False)\n","                  (to_kv): Linear(in_features=1024, out_features=2048, bias=False)\n","                  (to_out): Linear(in_features=1024, out_features=1024, bias=True)\n","                  (local_attention): LocalAttention(\n","                    (dropout): Dropout(p=0.1, inplace=False)\n","                  )\n","                  (sinkhorn_attention): SinkhornAttention(\n","                    (sort_net): AttentionSortNet()\n","                    (dropout): Dropout(p=0.1, inplace=False)\n","                  )\n","                  (dropout): Dropout(p=0.1, inplace=False)\n","                )\n","              )\n","            )\n","            (g): Deterministic(\n","              (net): PreNorm(\n","                (norm): LayerNorm((1024,), eps=1e-05, elementwise_affine=True)\n","                (fn): Chunk(\n","                  (fn): FeedForward(\n","                    (w1): Linear(in_features=1024, out_features=8192, bias=True)\n","                    (act): GELU()\n","                    (dropout): Dropout(p=0.1, inplace=False)\n","                    (w2): Linear(in_features=4096, out_features=1024, bias=True)\n","                  )\n","                )\n","              )\n","            )\n","          )\n","          (1): ReversibleBlock(\n","            (f): Deterministic(\n","              (net): PreNorm(\n","                (norm): LayerNorm((1024,), eps=1e-05, elementwise_affine=True)\n","                (fn): SinkhornSelfAttention(\n","                  (to_q): Linear(in_features=1024, out_features=1024, bias=False)\n","                  (to_kv): Linear(in_features=1024, out_features=2048, bias=False)\n","                  (to_out): Linear(in_features=1024, out_features=1024, bias=True)\n","                  (local_attention): LocalAttention(\n","                    (dropout): Dropout(p=0.1, inplace=False)\n","                  )\n","                  (sinkhorn_attention): SinkhornAttention(\n","                    (sort_net): AttentionSortNet()\n","                    (dropout): Dropout(p=0.1, inplace=False)\n","                  )\n","                  (dropout): Dropout(p=0.1, inplace=False)\n","                )\n","              )\n","            )\n","            (g): Deterministic(\n","              (net): PreNorm(\n","                (norm): LayerNorm((1024,), eps=1e-05, elementwise_affine=True)\n","                (fn): Chunk(\n","                  (fn): FeedForward(\n","                    (w1): Linear(in_features=1024, out_features=8192, bias=True)\n","                    (act): GELU()\n","                    (dropout): Dropout(p=0.1, inplace=False)\n","                    (w2): Linear(in_features=4096, out_features=1024, bias=True)\n","                  )\n","                )\n","              )\n","            )\n","          )\n","          (2): ReversibleBlock(\n","            (f): Deterministic(\n","              (net): PreNorm(\n","                (norm): LayerNorm((1024,), eps=1e-05, elementwise_affine=True)\n","                (fn): SinkhornSelfAttention(\n","                  (to_q): Linear(in_features=1024, out_features=1024, bias=False)\n","                  (to_kv): Linear(in_features=1024, out_features=2048, bias=False)\n","                  (to_out): Linear(in_features=1024, out_features=1024, bias=True)\n","                  (local_attention): LocalAttention(\n","                    (dropout): Dropout(p=0.1, inplace=False)\n","                  )\n","                  (sinkhorn_attention): SinkhornAttention(\n","                    (sort_net): AttentionSortNet()\n","                    (dropout): Dropout(p=0.1, inplace=False)\n","                  )\n","                  (dropout): Dropout(p=0.1, inplace=False)\n","                )\n","              )\n","            )\n","            (g): Deterministic(\n","              (net): PreNorm(\n","                (norm): LayerNorm((1024,), eps=1e-05, elementwise_affine=True)\n","                (fn): Chunk(\n","                  (fn): FeedForward(\n","                    (w1): Linear(in_features=1024, out_features=8192, bias=True)\n","                    (act): GELU()\n","                    (dropout): Dropout(p=0.1, inplace=False)\n","                    (w2): Linear(in_features=4096, out_features=1024, bias=True)\n","                  )\n","                )\n","              )\n","            )\n","          )\n","          (3): ReversibleBlock(\n","            (f): Deterministic(\n","              (net): PreNorm(\n","                (norm): LayerNorm((1024,), eps=1e-05, elementwise_affine=True)\n","                (fn): SinkhornSelfAttention(\n","                  (to_q): Linear(in_features=1024, out_features=1024, bias=False)\n","                  (to_kv): Linear(in_features=1024, out_features=2048, bias=False)\n","                  (to_out): Linear(in_features=1024, out_features=1024, bias=True)\n","                  (local_attention): LocalAttention(\n","                    (dropout): Dropout(p=0.1, inplace=False)\n","                  )\n","                  (sinkhorn_attention): SinkhornAttention(\n","                    (sort_net): AttentionSortNet()\n","                    (dropout): Dropout(p=0.1, inplace=False)\n","                  )\n","                  (dropout): Dropout(p=0.1, inplace=False)\n","                )\n","              )\n","            )\n","            (g): Deterministic(\n","              (net): PreNorm(\n","                (norm): LayerNorm((1024,), eps=1e-05, elementwise_affine=True)\n","                (fn): Chunk(\n","                  (fn): FeedForward(\n","                    (w1): Linear(in_features=1024, out_features=8192, bias=True)\n","                    (act): GELU()\n","                    (dropout): Dropout(p=0.1, inplace=False)\n","                    (w2): Linear(in_features=4096, out_features=1024, bias=True)\n","                  )\n","                )\n","              )\n","            )\n","          )\n","          (4): ReversibleBlock(\n","            (f): Deterministic(\n","              (net): PreNorm(\n","                (norm): LayerNorm((1024,), eps=1e-05, elementwise_affine=True)\n","                (fn): SinkhornSelfAttention(\n","                  (to_q): Linear(in_features=1024, out_features=1024, bias=False)\n","                  (to_kv): Linear(in_features=1024, out_features=2048, bias=False)\n","                  (to_out): Linear(in_features=1024, out_features=1024, bias=True)\n","                  (local_attention): LocalAttention(\n","                    (dropout): Dropout(p=0.1, inplace=False)\n","                  )\n","                  (sinkhorn_attention): SinkhornAttention(\n","                    (sort_net): AttentionSortNet()\n","                    (dropout): Dropout(p=0.1, inplace=False)\n","                  )\n","                  (dropout): Dropout(p=0.1, inplace=False)\n","                )\n","              )\n","            )\n","            (g): Deterministic(\n","              (net): PreNorm(\n","                (norm): LayerNorm((1024,), eps=1e-05, elementwise_affine=True)\n","                (fn): Chunk(\n","                  (fn): FeedForward(\n","                    (w1): Linear(in_features=1024, out_features=8192, bias=True)\n","                    (act): GELU()\n","                    (dropout): Dropout(p=0.1, inplace=False)\n","                    (w2): Linear(in_features=4096, out_features=1024, bias=True)\n","                  )\n","                )\n","              )\n","            )\n","          )\n","          (5): ReversibleBlock(\n","            (f): Deterministic(\n","              (net): PreNorm(\n","                (norm): LayerNorm((1024,), eps=1e-05, elementwise_affine=True)\n","                (fn): SinkhornSelfAttention(\n","                  (to_q): Linear(in_features=1024, out_features=1024, bias=False)\n","                  (to_kv): Linear(in_features=1024, out_features=2048, bias=False)\n","                  (to_out): Linear(in_features=1024, out_features=1024, bias=True)\n","                  (local_attention): LocalAttention(\n","                    (dropout): Dropout(p=0.1, inplace=False)\n","                  )\n","                  (sinkhorn_attention): SinkhornAttention(\n","                    (sort_net): AttentionSortNet()\n","                    (dropout): Dropout(p=0.1, inplace=False)\n","                  )\n","                  (dropout): Dropout(p=0.1, inplace=False)\n","                )\n","              )\n","            )\n","            (g): Deterministic(\n","              (net): PreNorm(\n","                (norm): LayerNorm((1024,), eps=1e-05, elementwise_affine=True)\n","                (fn): Chunk(\n","                  (fn): FeedForward(\n","                    (w1): Linear(in_features=1024, out_features=8192, bias=True)\n","                    (act): GELU()\n","                    (dropout): Dropout(p=0.1, inplace=False)\n","                    (w2): Linear(in_features=4096, out_features=1024, bias=True)\n","                  )\n","                )\n","              )\n","            )\n","          )\n","          (6): ReversibleBlock(\n","            (f): Deterministic(\n","              (net): PreNorm(\n","                (norm): LayerNorm((1024,), eps=1e-05, elementwise_affine=True)\n","                (fn): SinkhornSelfAttention(\n","                  (to_q): Linear(in_features=1024, out_features=1024, bias=False)\n","                  (to_kv): Linear(in_features=1024, out_features=2048, bias=False)\n","                  (to_out): Linear(in_features=1024, out_features=1024, bias=True)\n","                  (local_attention): LocalAttention(\n","                    (dropout): Dropout(p=0.1, inplace=False)\n","                  )\n","                  (sinkhorn_attention): SinkhornAttention(\n","                    (sort_net): AttentionSortNet()\n","                    (dropout): Dropout(p=0.1, inplace=False)\n","                  )\n","                  (dropout): Dropout(p=0.1, inplace=False)\n","                )\n","              )\n","            )\n","            (g): Deterministic(\n","              (net): PreNorm(\n","                (norm): LayerNorm((1024,), eps=1e-05, elementwise_affine=True)\n","                (fn): Chunk(\n","                  (fn): FeedForward(\n","                    (w1): Linear(in_features=1024, out_features=8192, bias=True)\n","                    (act): GELU()\n","                    (dropout): Dropout(p=0.1, inplace=False)\n","                    (w2): Linear(in_features=4096, out_features=1024, bias=True)\n","                  )\n","                )\n","              )\n","            )\n","          )\n","          (7): ReversibleBlock(\n","            (f): Deterministic(\n","              (net): PreNorm(\n","                (norm): LayerNorm((1024,), eps=1e-05, elementwise_affine=True)\n","                (fn): SinkhornSelfAttention(\n","                  (to_q): Linear(in_features=1024, out_features=1024, bias=False)\n","                  (to_kv): Linear(in_features=1024, out_features=2048, bias=False)\n","                  (to_out): Linear(in_features=1024, out_features=1024, bias=True)\n","                  (local_attention): LocalAttention(\n","                    (dropout): Dropout(p=0.1, inplace=False)\n","                  )\n","                  (sinkhorn_attention): SinkhornAttention(\n","                    (sort_net): AttentionSortNet()\n","                    (dropout): Dropout(p=0.1, inplace=False)\n","                  )\n","                  (dropout): Dropout(p=0.1, inplace=False)\n","                )\n","              )\n","            )\n","            (g): Deterministic(\n","              (net): PreNorm(\n","                (norm): LayerNorm((1024,), eps=1e-05, elementwise_affine=True)\n","                (fn): Chunk(\n","                  (fn): FeedForward(\n","                    (w1): Linear(in_features=1024, out_features=8192, bias=True)\n","                    (act): GELU()\n","                    (dropout): Dropout(p=0.1, inplace=False)\n","                    (w2): Linear(in_features=4096, out_features=1024, bias=True)\n","                  )\n","                )\n","              )\n","            )\n","          )\n","          (8): ReversibleBlock(\n","            (f): Deterministic(\n","              (net): PreNorm(\n","                (norm): LayerNorm((1024,), eps=1e-05, elementwise_affine=True)\n","                (fn): SinkhornSelfAttention(\n","                  (to_q): Linear(in_features=1024, out_features=1024, bias=False)\n","                  (to_kv): Linear(in_features=1024, out_features=2048, bias=False)\n","                  (to_out): Linear(in_features=1024, out_features=1024, bias=True)\n","                  (local_attention): LocalAttention(\n","                    (dropout): Dropout(p=0.1, inplace=False)\n","                  )\n","                  (sinkhorn_attention): SinkhornAttention(\n","                    (sort_net): AttentionSortNet()\n","                    (dropout): Dropout(p=0.1, inplace=False)\n","                  )\n","                  (dropout): Dropout(p=0.1, inplace=False)\n","                )\n","              )\n","            )\n","            (g): Deterministic(\n","              (net): PreNorm(\n","                (norm): LayerNorm((1024,), eps=1e-05, elementwise_affine=True)\n","                (fn): Chunk(\n","                  (fn): FeedForward(\n","                    (w1): Linear(in_features=1024, out_features=8192, bias=True)\n","                    (act): GELU()\n","                    (dropout): Dropout(p=0.1, inplace=False)\n","                    (w2): Linear(in_features=4096, out_features=1024, bias=True)\n","                  )\n","                )\n","              )\n","            )\n","          )\n","          (9): ReversibleBlock(\n","            (f): Deterministic(\n","              (net): PreNorm(\n","                (norm): LayerNorm((1024,), eps=1e-05, elementwise_affine=True)\n","                (fn): SinkhornSelfAttention(\n","                  (to_q): Linear(in_features=1024, out_features=1024, bias=False)\n","                  (to_kv): Linear(in_features=1024, out_features=2048, bias=False)\n","                  (to_out): Linear(in_features=1024, out_features=1024, bias=True)\n","                  (local_attention): LocalAttention(\n","                    (dropout): Dropout(p=0.1, inplace=False)\n","                  )\n","                  (sinkhorn_attention): SinkhornAttention(\n","                    (sort_net): AttentionSortNet()\n","                    (dropout): Dropout(p=0.1, inplace=False)\n","                  )\n","                  (dropout): Dropout(p=0.1, inplace=False)\n","                )\n","              )\n","            )\n","            (g): Deterministic(\n","              (net): PreNorm(\n","                (norm): LayerNorm((1024,), eps=1e-05, elementwise_affine=True)\n","                (fn): Chunk(\n","                  (fn): FeedForward(\n","                    (w1): Linear(in_features=1024, out_features=8192, bias=True)\n","                    (act): GELU()\n","                    (dropout): Dropout(p=0.1, inplace=False)\n","                    (w2): Linear(in_features=4096, out_features=1024, bias=True)\n","                  )\n","                )\n","              )\n","            )\n","          )\n","          (10): ReversibleBlock(\n","            (f): Deterministic(\n","              (net): PreNorm(\n","                (norm): LayerNorm((1024,), eps=1e-05, elementwise_affine=True)\n","                (fn): SinkhornSelfAttention(\n","                  (to_q): Linear(in_features=1024, out_features=1024, bias=False)\n","                  (to_kv): Linear(in_features=1024, out_features=2048, bias=False)\n","                  (to_out): Linear(in_features=1024, out_features=1024, bias=True)\n","                  (local_attention): LocalAttention(\n","                    (dropout): Dropout(p=0.1, inplace=False)\n","                  )\n","                  (sinkhorn_attention): SinkhornAttention(\n","                    (sort_net): AttentionSortNet()\n","                    (dropout): Dropout(p=0.1, inplace=False)\n","                  )\n","                  (dropout): Dropout(p=0.1, inplace=False)\n","                )\n","              )\n","            )\n","            (g): Deterministic(\n","              (net): PreNorm(\n","                (norm): LayerNorm((1024,), eps=1e-05, elementwise_affine=True)\n","                (fn): Chunk(\n","                  (fn): FeedForward(\n","                    (w1): Linear(in_features=1024, out_features=8192, bias=True)\n","                    (act): GELU()\n","                    (dropout): Dropout(p=0.1, inplace=False)\n","                    (w2): Linear(in_features=4096, out_features=1024, bias=True)\n","                  )\n","                )\n","              )\n","            )\n","          )\n","          (11): ReversibleBlock(\n","            (f): Deterministic(\n","              (net): PreNorm(\n","                (norm): LayerNorm((1024,), eps=1e-05, elementwise_affine=True)\n","                (fn): SinkhornSelfAttention(\n","                  (to_q): Linear(in_features=1024, out_features=1024, bias=False)\n","                  (to_kv): Linear(in_features=1024, out_features=2048, bias=False)\n","                  (to_out): Linear(in_features=1024, out_features=1024, bias=True)\n","                  (local_attention): LocalAttention(\n","                    (dropout): Dropout(p=0.1, inplace=False)\n","                  )\n","                  (sinkhorn_attention): SinkhornAttention(\n","                    (sort_net): AttentionSortNet()\n","                    (dropout): Dropout(p=0.1, inplace=False)\n","                  )\n","                  (dropout): Dropout(p=0.1, inplace=False)\n","                )\n","              )\n","            )\n","            (g): Deterministic(\n","              (net): PreNorm(\n","                (norm): LayerNorm((1024,), eps=1e-05, elementwise_affine=True)\n","                (fn): Chunk(\n","                  (fn): FeedForward(\n","                    (w1): Linear(in_features=1024, out_features=8192, bias=True)\n","                    (act): GELU()\n","                    (dropout): Dropout(p=0.1, inplace=False)\n","                    (w2): Linear(in_features=4096, out_features=1024, bias=True)\n","                  )\n","                )\n","              )\n","            )\n","          )\n","        )\n","      )\n","    )\n","    (project_in): Linear(in_features=128, out_features=1024, bias=True)\n","    (project_out): Linear(in_features=1024, out_features=128, bias=True)\n","  )\n","  (to_logits): Linear(in_features=128, out_features=5835, bias=True)\n",")"]},"metadata":{"tags":[]},"execution_count":15}]},{"cell_type":"code","metadata":{"id":"T9SCXj8foBG_","colab_type":"code","colab":{}},"source":["model = model.to(device)"],"execution_count":0,"outputs":[]},{"cell_type":"code","metadata":{"id":"GVnwhZGw76vZ","colab_type":"code","colab":{}},"source":["test_dataloader = create_dataloader(args, test
…
